models/cnn_03.pth (torch, 34553 bytes, 10 tensors)

conv_block_1.0.weight f4 [10, 1, 3, 3]
000000 14 74 b9 3e 57 c9 92 3e a3 63 cd be 54 e8 83 3e
       0.36221373 0.28669235 -0.4011508 0.2576319
000010 fd 30 8c 3e 80 5b 80 3d 53 c5 eb be 0b 4e 24 3e
       0.27381125 0.06267452 -0.46048984 0.16045396
000020 e8 aa 6f 3e be 4f fd be 25 63 c3 3e 83 a5 f2 bc
       0.2340504 -0.494749 0.3816158 -0.029619938
000030 38 cb e1 3d 8a 31 c9 3e f6 e1 64 3e 58 67 2b be
       0.11025089 0.39295608 0.22351822 -0.16738641
000040 0b 39 b3 3e f4 4b 93 3d 8f 80 7f be 9a dd 58 bd
       0.35004458 0.07192221 -0.24951385 -0.05294571
000050 fc 53 c2 bd 67 84 1b bf 69 2d 18 bf be a5 43 3e
       -0.09488675 -0.60748905 -0.5944429 0.19106194
000060 26 b3 43 bf 11 50 1d bf 80 48 d5 bd 05 29 50 bf
       -0.76445234 -0.61450297 -0.10414219 -0.8131259
000070 bd ab 8a bf 96 1f ef be ca 88 98 3e ac ab 19 bf
       -1.083366 -0.46703786 0.29791862 -0.60027575
000080 3b 1f 92 3e 64 48 bb 3e c6 07 b8 bd 72 df d5 3e
       0.28539452 0.36578667 -0.08985858 0.41772038
000090 c0 40 c0 3c fc 0e 8d 3e a5 5d da 3c 63 ac 63 bd
       0.023468375 0.27550495 0.026655981 -0.055584323
0000a0 1b f3 35 3e aa 92 be bc c2 24 08 3e 29 8e 4c 3e
       0.17768519 -0.023263294 0.13295272 0.19976105
0000b0 e2 3c f1 3d d9 92 13 be c5 a7 41 3e ef e4 75 3d
       0.117791906 -0.14411487 0.18911655 0.06003278
0000c0 9e b3 32 3e 0f 5f 4f be 1f 00 a9 be d1 c8 02 be
       0.17451331 -0.20251106 -0.33007905 -0.12771918
0000d0 6d db 82 be b4 9f 85 3e ff b2 ac 3d 08 dc e3 3d
       -0.25558034 0.26098406 0.08432578 0.11125952
0000e0 24 8a 1e be c1 97 c9 3d e8 2e 88 3e f0 60 8c be
       -0.15482384 0.09843398 0.26598287 -0.27417707
0000f0 94 30 07 bc 2b a1 e9 be ef eb 86 3c 75 a5 32 be
       -0.008251328 -0.45630774 0.016469924 -0.1744593
000100 4d 2f 85 bd 11 46 92 be 21 c4 a2 3e 2d 3f 77 be
       -0.065031625 -0.2856908 0.3179026 -0.24145193
000110 90 52 86 be ab 1f 15 be f1 be d2 3e c2 2a 89 3e
       -0.26234865 -0.14562862 0.41161302 0.26790434
000120 9a 63 ec 3e fa b7 a5 be a5 a3 e5 be d6 85 59 be
       0.4616974 -0.32366925 -0.44851413 -0.2124246
000130 31 d8 97 be 58 a5 c6 3c 8a 3d c0 3e 58 94 ef 3e
       -0.29657128 0.024248764 0.3754695 0.46792865
000140 35 ac 13 be 4b 27 68 be 82 0f 34 3e 59 1a 0a be
       -0.1442116 -0.22671239 0.17584041 -0.13486613
000150 ef 53 4e 3e c8 18 a5 bd 62 96 41 3e ed ab 84 be
       0.20149206 -0.08061367 0.18905023 -0.2591242
000160 b4 84 2c be f2 87 cd 3d
       -0.16847497 0.10035695

conv_block_1.0.bias f4 [10]
000000 57 90 5a 3d 05 c8 89 3d ff 0c 81 3e 19 a5 4c 3e
       0.05336031 0.06727604 0.25205228 0.19984855
000010 49 0b 00 bf f3 66 49 be 12 aa 37 3e 78 de cf bd
       -0.5001722 -0.19668178 0.1793597 -0.101498544
000020 7e 72 b5 bd 0c 1c a6 be
       -0.08859728 -0.32443273

conv_block_1.2.weight f4 [10, 10, 3, 3]
000000 6a 65 00 3d ec be 62 3c 0a 3a e0 bc 19 36 1a be
       0.031346716 0.013839465 -0.027371425 -0.15059699
000010 44 cf 70 be 7f e4 6c be 86 82 b7 bd c5 6f 61 be
       -0.23516566 -0.2313404 -0.08960442 -0.22015293
000020 2f de 46 be 87 d9 05 be 25 df 03 3c c3 3a 8e bd
       -0.19420694 -0.13071261 0.008048807 -0.06944802
000030 63 74 4f be a6 7d 94 be 4f da 83 be 0b 05 20 be
       -0.20259242 -0.29002112 -0.25752494 -0.15626924
000040 02 9c 4c be 26 95 80 be d9 72 01 bc 14 16 62 3d
       -0.19981387 -0.2511379 -0.007900917 0.055196837
000050 ad 44 ed 3d 78 19 cd 3d 08 0c 91 3e 20 45 42 3e
       0.115853645 0.100146234 0.28329492 0.18971682
000060 f0 21 b4 bd da f7 6a 3d e4 72 0c 3e 8b 54 28 be
       -0.087955356 0.057365276 0.13715702 -0.164385
000070 80 8c fa 3b a1 8b 42 be 78 5e 0e 3d 8d 72 b4 3c
       0.0076461434 -0.18998577 0.03475806 0.022027278
000080 bb 96 ed bd b8 85 01 3e e4 d5 26 3d 2d 5e 24 3d
       -0.11601015 0.12648666 0.040731326 0.040128876
000090 8c 67 db bd 31 d3 f3 bd 3e 1e 85 3c d2 0a 04 bd
       -0.107131094 -0.11905516 0.016249772 -0.03223688
0000a0 19 20 01 3d 32 8b cf bd ff 2f b6 3d e3 1d 91 bd
       0.03152475 -0.10133971 0.08895873 -0.070857786
0000b0 9f 6e 86 bc 69 10 b6 3c 13 78 5f 3d 4b 1b ad 3d
       -0.01641017 0.022224622 0.05455787 0.08452471
0000c0 ee ab c5 3d 82 32 ab bd 27 50 e3 3c 3c e4 38 bd
       0.096519336 -0.08359243 0.02774818 -0.045139536
0000d0 22 e2 43 bc d5 e3 9e bd 46 bd 24 3e a0 c1 a8 bd
       -0.01195577 -0.07758299 0.16087827 -0.08240056
0000e0 f9 0d a5 bc 97 10 e6 3d e4 28 3c 3d c9 25 8a bd
       -0.020148264 0.11233633 0.045937434 -0.06745488
0000f0 ad 34 d3 3d fa ed 35 bc 4d 4c 44 bd d1 f7 a0 bd
       0.103127815 -0.011104101 -0.04792433 -0.07859767
000100 be 8a 40 3d 10 f5 39 bc 7e 15 61 bd 0f 9e b1 3d
       0.047007315 -0.011349931 -0.054952137 0.086727254
000110 a8 14 b0 3c 4b 91 71 bd ea e4 a0 bd 89 70 58 bc
       0.021494225 -0.058976453 -0.07856162 -0.013210424
000120 ee aa cb 3d 60 dd 99 bc 14 9f 3b bd 69 92 42 bc
       0.099447116 -0.018782318 -0.045806006 -0.011875727
000130 04 8e 9b bd cd 80 5a 3d 88 97 f6 3d 47 28 e6 bd
       -0.07595447 0.05334549 0.12040621 -0.11238151
000140 5e 82 34 bc c0 09 5f 3d 83 85 9c 3c 7f b5 19 bd
       -0.01101741 0.054452658 0.019106632 -0.037526604
000150 59 57 61 3d c6 e4 62 3d 19 7c 21 3d d8 bc 97 bc
       0.05501494 0.055393957 0.03942499 -0.018522665
000160 d3 a4 e4 bc 89 ab 38 3c 18 37 13 3d 31 e9 57 bd
       -0.027910626 0.011271366 0.035941213 -0.052712623
000170 c0 2d 82 3c 15 3e 3e 3e 24 69 1a 3d 57 18 19 be
       0.015890956 0.1857837 0.037697926 -0.14950691
000180 80 65 cc 3d 0b 4f b3 3d 83 78 88 bd 35 69 fd 3d
       0.09980297 0.087553106 -0.06663611 0.12373582
000190 df bd 88 bd 4a 1c 12 be d7 4e 5c 3e 39 ae 92 3d
       -0.0667684 -0.14268604 0.2151445 0.071621366
0001a0 19 e7 5d be 63 05 0c 3c 1c f2 2e 3a 9d 36 64 be
       -0.21670188 0.008546206 0.00066736504 -0.22286458
0001b0 2c 4d 12 bd 8c 0a 0c 3d 9d 04 0f 3d d8 9c 43 3d
       -0.035718128 0.034189746 0.03491651 0.047757
0001c0 d3 a1 be bd 8e 55 b7 bd 9a 36 61 bc 4c 1d ec 3d
       -0.09308209 -0.08951865 -0.013745928 0.115290254
0001d0 29 bf 41 3c ca f6 75 bd 29 9e d5 bc 20 2f 1b bc
       0.011825361 -0.06004981 -0.026076393 -0.009471685
0001e0 d4 21 c4 bd b8 13 1f 3d 27 1e bb ba d2 c0 00 bd
       -0.09576765 0.038837165 -0.0014275954 -0.031433888
0001f0 0a 5d ef bd 4a 1b 21 3e 98 cb e0 3d a9 09 ad 3c
       -0.11687668 0.15733066 0.109763324 0.02112277
000200 18 1d e7 bd fb fa 7a bd 2f 4a b4 bd a4 82 05 3d
       -0.11284846 -0.06127451 -0.08803212 0.03259529
000210 bb 17 aa 3d cd 5a cf 3d 23 43 57 3c b9 9c da 3c
       0.083053075 0.10124741 0.013138565 0.02668606
000220 9a a9 1f ba ea ff a2 bd d3 d2 b8 bd d2 ad c9 bd
       -0.0006090641 -0.07958968 -0.090245865 -0.09847607
000230 0c 92 31 3d 36 e7 53 bd 8a db ac bc d4 0d 78 bd
       0.04335217 -0.05173417 -0.021100778 -0.060560063
000240 3f 67 3d bd c7 3f 84 bd 8d 6e 59 bd 13 95 21 3d
       -0.04624104 -0.06457477 -0.053083945 0.03944881
000250 7c 4c 5c bc da 62 7f 3d c8 63 08 bd e1 43 61 bd
       -0.01344597 0.06235013 -0.033298284 -0.054996375
000260 c8 fc d6 bc 42 94 6b bd 30 65 dd bc 2c d2 d5 bd
       -0.026243582 -0.057514437 -0.027025789 -0.10440478
000270 de ef 96 3d 2d d7 03 bd 10 5f 5e 3d 62 8d 24 3d
       0.0736997 -0.03218763 0.054289877 0.040173896
000280 9e 01 d7 3d 13 3d 4d bd 93 5f 8c 3d 30 a5 31 bd
       0.10498355 -0.050107073 0.06854167 -0.043370426
000290 a4 04 8a 3c 05 fe 90 3d c5 25 d0 3b e6 e8 bc 3c
       0.016847916 0.070797004 0.0063521587 0.023060273
0002a0 97 cf 0c bd 54 f9 9f bd eb 06 8c 3d 68 51 d6 bd
       -0.03437766 -0.078112274 0.06837257 -0.10464746
0002b0 9d ef 85 3d d1 91 a1 3d 18 25 cc 3d af b8 cb bc
       0.06539843 0.078891404 0.099680126 -0.024868337
0002c0 ed 65 b1 bd 0b 25 c2 3c 64 84 6e 3d 91 dd d6 bd
       -0.08662019 0.023699304 0.058231726 -0.10491479
0002d0 94 4b ca bc 77 fc 84 bd e5 9b 4f bc 2e 9b 57 bd
       -0.024694242 -0.06493466 -0.0126714455 -0.052638225
0002e0 c7 33 2b bd fe 80 01 bd 36 55 d4 bd 7c 9e af 3d
       -0.041797426 -0.031617157 -0.10367815 0.0857515
0002f0 e7 70 af 3d e8 d1 88 bc fc 58 5d bc b3 bb 42 bd
       0.08566456 -0.016701654 -0.013509985 -0.047542285
000300 50 e9 c6 bd b5 89 d1 bd a4 bc 22 3d 03 d7 80 bd
       -0.097124696 -0.10231344 0.039730683 -0.0629101
000310 82 0e 8c bd 02 7f 12 bc d3 9c 19 bd 26 38 1a bd
       -0.06838705 -0.008941414 -0.037503075 -0.037651204
000320 11 3e c5 3a 1d 7a bb bc 62 2e 1a bd 0c d0 59 bd
       0.0015048404 -0.022885377 -0.03764189 -0.053176925
000330 80 4b b2 bd f5 cf b2 3d 8b 1e 2d bd 48 6f ca 3c
       -0.08705807 0.08731071 -0.042265456 0.024711266
000340 f5 d2 26 bd 60 48 b9 3b 25 0e bd 3d 73 29 3d 3d
       -0.040728528 0.0056543797 0.092312135 0.046182107
000350 89 3e ba bd f4 7d 0c 3d 15 20 ba 3d 86 44 a2 3c
       -0.09093959 0.034299806 0.090881504 0.019808065
000360 e5 ba 90 3d e3 d4 d4 3d 2d 74 85 bc 30 a4 b2 3c
       0.07066897 0.103921674 -0.016290748 0.021806806
000370 1d 18 96 bd f0 94 b4 bc 45 0d 9f 3d c6 e3 5c 3d
       -0.07328818 -0.022043675 0.07766203 0.05392816
000380 7a 6d 86 bd 66 1a ad bd d9 87 93 bd 1a 02 d5 bd
       -0.0656385 -0.08452301 -0.07203645 -0.104007915
000390 6f 94 a6 bd 1e b6 d6 bc f9 ff 91 3d b7 98 90 3c
       -0.0813378 -0.026209887 0.07128901 0.017650945
0003a0 82 09 a4 bd 02 2f ad bd 08 7f 4a 3d 0b d0 a4 bd
       -0.08009626 -0.08456232 0.049437553 -0.080474935
0003b0 0a 1e 76 bc 2c 8b 47 3d db c5 50 bd 59 00 5b bc
       -0.01502181 0.04871671 -0.05096994 -0.013366782
0003c0 36 a2 34 bc 59 fe dd bc de 5b 60 bd fd 6a c0 bd
       -0.011025002 -0.027098821 -0.05477511 -0.093954064
0003d0 26 83 ae bd f9 b8 67 bd bf a6 ce 3d 7a 0f 51 bd
       -0.08521108 -0.056572888 0.10090398 -0.05104015
0003e0 1d 32 8f bd da 2d c5 3c 72 b5 de 3c 8c d6 63 3d
       -0.0699198 0.024069715 0.02718613 0.05562453
0003f0 ac 2a a3 3d 73 9e 70 3d 10 fe d5 bd 30 49 02 3c
       0.079671234 0.05874486 -0.10448849 0.00795202

conv_block_1.2.bias f4 [10]
000000 17 4f e9 3e e2 f3 1b be 73 c1 88 bd da 8e e1 3e
       0.45568153 -0.15229753 -0.066775225 0.440543
000010 b9 56 f1 bd 2d c4 81 3d 92 07 aa 3e af cb 36 3e
       -0.11784119 0.06336246 0.332089 0.17851137
000020 21 c0 89 3e 4e a6 b5 3c
       0.26904395 0.022174027

conv_block_2.0.weight f4 [10, 10, 3, 3]
000000 c8 34 de bc e6 d8 c9 bd 11 be c7 bc 3b 87 8a bd
       -0.027124777 -0.09855823 -0.024382623 -0.067640744
000010 0b fc c3 bc 0f 5b 01 3e 16 a1 ae bd 83 2a a8 3c
       -0.023923894 0.12632392 -0.085268185 0.020528084
000020 b0 3a cf 3d 0c db 36 3d d5 fe 9f bd 6e b9 65 bd
       0.101186156 0.044642493 -0.07812277 -0.056085043
000030 93 a0 a2 bd c0 ab 16 bd c4 6e 6f 3d 12 93 e7 3c
       -0.07940783 -0.036784887 0.058455244 0.02826837
000040 ae 9f 5d 3d 02 a0 4d bd 55 ea 83 3c 1c 84 82 bd
       0.05410736 -0.050201423 0.01610295 -0.06372854
000050 65 5a 58 3d f8 ef 3b bd 60 d3 d8 bc d7 be bb bd
       0.052820582 -0.04588315 -0.026467979 -0.09167259
000060 e5 97 be 39 0e d0 cc 3d ab fa 51 3d de f3 43 be
       0.00036352794 0.10000621 0.051264446 -0.19135997
000070 01 a8 81 bd eb f3 1f be d4 e9 25 bd 73 b3 0a 3e
       -0.06330872 -0.15620391 -0.0405062 0.13545017
000080 86 bd a9 bd b0 f3 f3 3d c7 56 75 bb 2a ad 8e bd
       -0.08288102 0.11911714 -0.0037435757 -0.06966622
000090 a3 0a de 3c e2 6f 0a 3d b7 f4 9f 39 93 66 19 bc
       0.027104681 0.033798106 0.0003050917 -0.0093628345
0000a0 a0 05 db 3d c2 28 2a bc e4 31 64 bc d1 35 4a bc
       0.10694432 -0.010385694 -0.0139279105 -0.012341932
0000b0 16 02 f7 3d f5 ac 44 bd 9e 68 0d bc 71 18 a7 bd
       0.12060945 -0.048016507 -0.0086309 -0.08158959
0000c0 6f 1c bb bc 8d ca c1 bd 3d 17 dc bd 80 28 e2 3d
       -0.022840707 -0.094624616 -0.1074662 0.11042881
0000d0 58 10 51 3d 8e c5 a0 3d 8a 7e 5f be 26 c6 05 3e
       0.051040977 0.078501806 -0.21825615 0.13063869
0000e0 6b 65 54 be 5e fc c2 3d 9c 16 69 3e c3 ef 89 3d
       -0.20741813 0.095207915 0.22762531 0.06735184
0000f0 41 4b a3 3e 7d d5 c0 3d 23 30 82 3c e5 6b 62 3c
       0.31893352 0.0941572 0.015892094 0.013819669
000100 40 36 b5 ba 5c f4 19 bc 2c cf ae 39 bd 71 cb 3d
       -0.0013825372 -0.009396639 0.0003334222 0.09933803
000110 c4 79 f3 bd 35 d7 18 bb 4b 1b b4 bc 22 25 51 bd
       -0.11888459 -0.0023321633 -0.02198567 -0.051060803
000120 c9 91 2a be eb ac db bd 59 ca a0 bd 18 44 e8 3d
       -0.16657175 -0.10726341 -0.07851095 0.11341113
000130 c0 73 0f 3e cc 31 f1 3b ff 40 26 bc 4f 77 d8 bd
       0.14008999 0.0073606726 -0.010147332 -0.10569631
000140 6a c7 d4 3c 6e 21 d0 3d ce 3f fc bd 3e 77 0c 3d
       0.025973994 0.10162626 -0.12316857 0.034293406
000150 d4 39 d3 3d d4 11 f0 3c f0 1e dd bd 91 90 2c 3d
       0.10313764 0.029305376 -0.107969165 0.042130057
000160 90 81 c7 3d 07 5b 06 bd d0 bf 84 3d aa d9 82 be
       0.09741509 -0.032801654 0.06481898 -0.2555669
000170 77 c1 56 be 7e c3 48 3e 50 57 61 be 98 01 5f bb
       -0.20972238 0.19605824 -0.22005963 -0.003402805
000180 a9 a1 b0 3d 7f 20 e0 3d f2 8d 92 3d 22 15 02 bd
       0.08624584 0.10943698 0.0715598 -0.031758435
000190 c6 47 38 be a4 fa 39 be 05 89 e8 bd 1c 52 12 bd
       -0.1799613 -0.18162018 -0.113542594 -0.035722837
0001a0 3c 25 04 be 5d f7 1c 3b 24 f6 ad bd e7 35 8c 3b
       -0.12904829 0.002395115 -0.08494213 0.0042788866
0001b0 e1 7a 75 3d 28 c0 19 3d a4 18 55 bd 46 ca b0 bd
       0.05993164 0.03753677 -0.052025452 -0.086323306
0001c0 5d bc d6 3b 7c 73 72 bd b0 d7 ad 3d cd e6 ce bd
       0.0065532164 -0.059192166 0.08488405 -0.101026155
0001d0 f6 4c 45 3d 5f 83 2c be 9c 37 d8 3e 6c 4e c5 3e
       0.0481691 -0.16846989 0.42229927 0.38536394
0001e0 ac cf 8c be 36 13 44 3f 95 49 ec 3e f2 c8 33 bf
       -0.2750219 0.76591814 0.4614989 -0.70228493
0001f0 c2 45 72 be b4 35 06 be 73 df 18 3e f7 39 82 3e
       -0.23659423 -0.13106424 0.14928989 0.2543485
000200 de 3c 24 3e 92 c5 ae bd d6 14 97 3c 7f 82 b6 3d
       0.16038844 -0.08533777 0.018442553 0.08911609
000210 87 a3 85 bd 51 a0 34 be 55 9f 99 3b 09 1f 36 be
       -0.06525331 -0.17639281 0.0046881833 -0.17785276
000220 51 bb 34 be 53 f8 4f be 4c e4 e3 3b 35 9c ae 3d
       -0.1764958 -0.20309572 0.0069547053 0.08525888
000230 75 85 f6 bd 89 c0 36 3e 3c 7d 36 3e d3 2e 00 3e
       -0.12037174 0.17846884 0.1782121 0.12517862
000240 73 74 30 bf 75 73 19 3c 0b 9e 91 3e 33 22 06 bf
       -0.6892769 0.009365906 0.2844089 -0.52395934
000250 7d 3c 2c 3e 6d 94 b9 3e 24 35 6a be 2e 9c e9 3c
       0.1681995 0.36246052 -0.22871834 0.028516855
000260 37 7f 23 be a0 13 02 be 53 6c 50 bd 60 cf 71 3e
       -0.15966497 -0.12702799 -0.050884556 0.23614264
000270 da 1b 63 be c4 59 6c 3e 80 77 79 3d 00 69 80 be
       -0.22178593 0.23081118 0.06090498 -0.2508011
000280 bb 4d be 3c 4b 65 ce bd ca d5 d4 be 56 5c 06 3e
       0.023230424 -0.10077914 -0.41569358 0.13121161
000290 9e fb dd 3e 26 5a 44 be 53 ca b5 3e 57 88 ab 3e
       0.4335603 -0.19175014 0.35505924 0.33502457
0002a0 53 98 83 be 4e fb 9b bd 00 0b 42 bd e0 96 83 3e
       -0.25702152 -0.07616292 -0.04737377 0.25701046
0002b0 07 05 e6 bd 1e ec d8 be ee e0 3e 3e 3c ec 04 3e
       -0.11231428 -0.42367643 0.18640491 0.12980741
0002c0 31 43 5a be c7 73 b0 be 5d 60 3d 3e d9 61 ca 3e
       -0.21314694 -0.3446333 0.18493791 0.39527777
0002d0 7c 65 2b bd f2 35 b9 3d 11 1b 8d 3d e3 22 b9 bd
       -0.04184483 0.090434924 0.06889928 -0.09039857
0002e0 64 3f b5 bd b0 d2 ed bd 76 39 96 bd b4 c3 6b bd
       -0.088499814 -0.11612451 -0.073351786 -0.057559684
0002f0 f7 38 1a bd 31 1f dd bc 1a fb 5c bd 33 98 14 bd
       -0.037651982 -0.026992412 -0.053950407 -0.03627796
000300 d2 34 22 bd 71 34 d3 3d b3 ad 24 bd 71 03 9c bd
       -0.039601155 0.10312737 -0.040204715 -0.07617844
000310 59 22 2f 3d 55 89 1e bc ff 1d a5 3d 80 2d 87 3d
       0.042757366 -0.009676297 0.08062362 0.06600475
000320 18 84 c6 3d fc 14 9e bd ec 08 8b 3d 4b 48 b6 3d
       0.09693164 -0.07718846 0.06788811 0.089005075
000330 bc f8 54 bd 27 a2 c6 3d db e3 a1 3d a2 58 27 bd
       -0.051995024 0.09698897 0.07904788 -0.04085601
000340 f8 45 8b 3b 99 55 89 bd a0 42 01 be d7 a5 8e 3c
       0.0042502843 -0.067057796 -0.12623072 0.017413063
000350 33 15 50 3d 9c 2c fa bd 56 3a 98 3c af 44 ab bd
       0.050801467 -0.1221554 0.018582504 -0.0836271
000360 f2 01 9c 3d 2f d9 b4 3d c3 94 eb 3c ac ac 9a bd
       0.076175585 0.08830487 0.028757459 -0.07552466
000370 15 d3 4e 3d 6f 9a 0a 3d 99 2f 73 bb ff d7 85 3c
       0.050494272 0.033838686 -0.0037107228 0.016338347
000380 76 96 9f 3d 68 db 6e bd c1 31 56 bd 66 d1 b8 3b
       0.0779237 -0.05831471 -0.052293543 0.0056401966
000390 7a 9d 73 b9 67 fd a1 3d f1 29 57 bd 39 fa fe bb
       -0.0002323295 0.07909661 -0.052530233 -0.0077812937
0003a0 d1 87 e0 3b 2e 3a 0e bd 27 d2 27 3d 55 b7 1e bc
       0.006852128 -0.034723453 0.0409719 -0.009687264
0003b0 f9 bf 0a be 0c 81 00 bd eb 61 72 bd f6 7f d8 bb
       -0.13549794 -0.03137307 -0.059175413 -0.006607051
0003c0 03 fe 36 bd 8d b4 06 be 6a c5 09 bd 62 e9 c9 bc
       -0.04467584 -0.13154812 -0.033635534 -0.024647418
0003d0 16 8a 27 bd 9e e6 94 3d c9 5e c8 bc 1a 3d 95 3d
       -0.040903173 0.07270549 -0.02445926 0.07287045
0003e0 fc c1 ca 3c 6a 01 ce bd e4 78 55 3c af 28 9a 3d
       0.024750702 -0.100588635 0.013029311 0.07527291
0003f0 35 f7 dd bd 94 80 de bd 3c 6c 87 3d 69 07 78 3d
       -0.108381666 -0.10864368 0.06612441 0.060553942

conv_block_2.0.bias f4 [10]
000000 91 ca 0e be 19 95 df 3c 26 0d 71 bd ea 49 38 be
       -0.1394446 0.027292775 -0.05885043 -0.17996946
000010 2e f2 97 3c b4 69 fc 3c 02 df b3 3e 90 97 02 3f
       0.018548097 0.030812122 0.3513108 0.51012516
000020 58 c8 4b 3f 83 2c 9b bd
       0.79602575 -0.07576849

conv_block_2.2.weight f4 [10, 10, 3, 3]
000000 79 75 27 be 99 97 3f be d4 c2 a1 bd 8c 80 c1 bd
       -0.16353406 -0.18710174 -0.07898489 -0.094483465
000010 35 ae 12 bd b7 f0 a2 3d ec 96 53 3c bf 58 1b be
       -0.035810668 0.07956069 0.012914401 -0.15170573
000020 15 e9 ac 3d c8 fb 9c bd cd f3 74 be 19 e4 27 3c
       0.08442894 -0.07665211 -0.23921128 0.010247254
000030 2a 8d ad 3a f8 3e db 3c 02 4f 9a be 7a bd 7b 3e
       0.0013240923 0.026763424 -0.30138403 0.24583998
000040 d6 fc fb 3d 7d 88 24 bf 0c ca 4f 3d 93 28 99 bb
       0.12304084 -0.64270765 0.050729796 -0.0046740263
000050 50 1b d0 3d b9 79 95 bd 60 58 82 3d 31 5c 0c 3d
       0.101614594 -0.072986074 0.063645124 0.034267608
000060 26 13 e7 3c b9 b2 86 3d 59 22 b6 bd 79 0d 11 be
       0.028207373 0.065770574 -0.0889327 -0.14165296
000070 3e 3f ca 3d ab 81 0b bc 03 4b cd bd c6 c4 fa 3c
       0.09875344 -0.008514802 -0.10024073 0.030611407
000080 20 a6 de ba cc bc 02 bd e0 4a 3a 3d 3a ce 95 3d
       -0.0016986765 -0.031918332 0.045481563 0.07314725
000090 11 b9 65 bd f8 1c 0c 3d cd 7b 9a 3d 0b 4e 9a ba
       -0.056084696 0.034207314 0.075431444 -0.0011772526
0000a0 36 60 16 bc 05 7f 48 3c 56 72 4e bd 3f 9c 23 bd
       -0.009178212 0.012237315 -0.050402008 -0.03994393
0000b0 83 60 da bd 52 35 d3 bd 2f fa 28 be 9e 77 eb 3d
       -0.106629394 -0.103129044 -0.16501687 0.114974245
0000c0 48 d3 41 3c bc 12 7c bd a2 e5 dc 3d 6e 65 fe bc
       0.0118301585 -0.061541304 0.107859865 -0.031054225
0000d0 f4 b9 e2 bc b7 43 28 3c b3 33 df be ba d6 33 be
       -0.02767656 0.010270051 -0.4359413 -0.1756238
0000e0 38 87 1d bf 2f d3 3c be 4c 4c 53 3d cf 6c b2 3e
       -0.6153445 -0.18439935 0.051586434 0.3484864
0000f0 cf e0 7e be 93 3c f3 3c 14 0e 29 3f 2a 86 dc 3e
       -0.24890445 0.02969197 0.66037107 0.4307111
000100 e9 18 c9 3d ec 61 ec bd ae 4d 2e 3e 39 8a 76 bd
       0.09819204 -0.115421146 0.1702182 -0.060190413
000110 66 ff c9 bd be 1d c1 bd 54 fe c5 bd ee a9 cd bc
       -0.098631665 -0.09429501 -0.0966765 -0.025105443
000120 8d 60 e5 3e 0e 74 c4 bd b5 7b 44 3d ae 30 bd bc
       0.44800225 -0.09592448 0.04796954 -0.023094501
000130 a1 08 ee be ae 27 8f 3e 4a b5 c4 be 3b 17 dc be
       -0.46490958 0.2795996 -0.38419563 -0.42986473
000140 99 8e 2a bd 8d e7 51 bd 62 e1 51 3d 7a 7c 8a bd
       -0.041639898 -0.051246215 0.051240332 -0.06762023
000150 4d 02 bc 3c 5d 4c ee bd 4d 1e 2d bd de ba 60 3d
       0.022950316 -0.11635659 -0.042265225 0.05486571
000160 98 0b 8f bc 8e 64 6f bd 84 48 69 3d 7b a7 e8 3b
       -0.017461583 -0.058445506 0.056953922 0.0071000434
000170 da 10 c6 bc 05 31 e9 bd c1 f2 06 bc 3c f7 d3 bd
       -0.024177957 -0.11386303 -0.008236588 -0.103498906
000180 5d 45 a9 3d 9e 34 2c bd 4b 8a 29 bd d5 82 25 3d
       0.08265183 -0.042042367 -0.041391652 0.040407974
000190 75 6e ad bd 20 3d 89 3c 76 22 70 3e 0c 72 22 bf
       -0.08468334 0.01675278 0.23450646 -0.6345527
0001a0 9d 9d 78 3e 06 03 c0 bc 77 5f 1e bf 28 81 95 3d
       0.24278875 -0.023438942 -0.6186442 0.07300025
0001b0 22 13 a6 3a 31 fc a3 bc 0b 16 9a 3d 39 3f 3c 3d
       0.0012670497 -0.020017715 0.075237356 0.04595873
0001c0 dc 5d b0 bd 8b 95 75 bd 12 9e 4a bd b9 5b c5 bd
       -0.08611652 -0.05995707 -0.049467154 -0.09636635
0001d0 ac f7 62 bd 00 b3 39 bd da 68 12 3e e7 bc 97 3d
       -0.05541198 -0.045336723 0.1429781 0.07409077
0001e0 10 12 23 3e 28 e3 1a bd 53 de 99 bd 7a b5 e8 3d
       0.15924859 -0.03781429 -0.07513108 0.11362739
0001f0 ce a3 c6 3c 3c a0 d4 3d a7 b5 95 3c 6b 3f f6 3c
       0.02424803 0.10382125 0.018275095 0.030059537
000200 eb cf e2 3c df b1 01 3d 47 21 0b bd ca 24 43 3d
       0.027687034 0.03166377 -0.033967283 0.047642507
000210 df 28 4f 3d ec 85 72 bd ae 31 8c bd 78 52 0b 3c
       0.050576087 -0.05920975 -0.06845413 0.008503549
000220 0b ae fd 3d 3e 96 80 3d d4 ec 5f bd 3a aa 91 bd
       0.12386712 0.062786564 -0.054669216 -0.07112546
000230 15 30 0c bc 4c e4 85 3d 0f 6c c2 3d dc 6d 39 3b
       -0.0085563855 0.06537685 0.09493267 0.002829424
000240 ee 43 77 3d 47 96 98 3e e6 f6 9c 3e 6a 89 8f be
       0.060367517 0.29802153 0.3065712 -0.28034526
000250 80 a3 a7 3c 11 d0 7f be 88 70 c7 bd 68 bf 9b 3b
       0.020463705 -0.24981715 -0.097382605 0.004753042
000260 0d 58 70 be 4e ae 4c 3d 8e 0b 3c be 23 2a c6 bc
       -0.23471089 0.049970917 -0.18363783 -0.024190014
000270 9a 73 98 bd 9f 55 a7 be 2a 2b 81 be 73 d2 3e 3d
       -0.07443924 -0.3268251 -0.25228244 0.04658742
000280 41 ba c8 be f7 49 44 3e b6 11 29 3d 2e e1 2a bc
       -0.392046 0.1916884 0.041276656 -0.010429664
000290 c0 dd df bc d1 ae 2b 3e 2e 28 60 3e 31 02 57 be
       -0.027327418 0.16765906 0.21890327 -0.2099693
0002a0 08 53 ae 3d 93 8e 70 3e 7e 4f 7c bd 7c 44 5d bc
       0.08511931 0.23491888 -0.061599247 -0.0135050975
0002b0 1b 11 41 3d 5d 14 fc 3d 8a 16 60 bd d7 ee 55 bd
       0.047135454 0.123085715 -0.054708995 -0.05222973
0002c0 a1 55 37 3d 72 47 0a 3b d5 9c 98 bc 44 5c c6 bd
       0.044759396 0.0021099714 -0.01862947 -0.09685567
0002d0 c1 b0 da 3d a9 c0 0b 3d c7 e0 7d bd db 7a 9f bd
       0.106782444 0.034119282 -0.061981943 -0.07787105
0002e0 42 9f 69 3b d5 a2 3b bd d3 e4 2f bc ba aa ed 3d
       0.0035647904 -0.045809586 -0.010735708 0.11604829
0002f0 ca 10 bb bc 76 dd b6 be cf 40 5c be 23 a7 02 bf
       -0.022835154 -0.35715836 -0.21509098 -0.5103628
000300 c4 a2 f1 be bc 12 0e 3f be bd 5c be 6e 69 9b be
       -0.47194493 0.55497336 -0.21556756 -0.30353874
000310 de 9d 77 3e 6a ea 2f 3e 54 02 c3 bd 84 69 30 bd
       0.24181315 0.17179266 -0.095219284 -0.043069378
000320 9b fd 91 bc cf 86 21 bd b6 e6 eb 3c b5 42 90 3d
       -0.017821124 -0.039435204 0.028796535 0.07043973
000330 a2 11 15 bd dd 67 85 bd 73 54 82 3d 48 2c 6a bd
       -0.03639377 -0.06513951 0.06363764 -0.057171136
000340 60 21 04 3d 7f 2f 95 bb 22 16 6f 3d 32 a6 5d bc
       0.03225839 -0.004552781 0.058370717 -0.013528394
000350 79 74 38 be 67 ce 6b 3d ea 1b bb bd ac 90 ac bd
       -0.18013181 0.057569887 -0.091361836 -0.084260315
000360 66 3f 8e 3d 52 27 f6 bd ae 00 ae bd 48 07 24 bd
       0.06945686 -0.120192185 -0.084962234 -0.040046006
000370 c5 f3 24 3d 8f 38 e4 bd 5c 9c 9e 3d 28 6f 2a 3d
       0.04027154 -0.111436 0.07744667 0.041609913
000380 5d f5 26 3d 60 a2 5b 3e 5e 61 e6 3d 09 00 3a be
       0.04076134 0.2144866 0.1124904 -0.18164076
000390 b2 20 3b 3e 5d c8 b2 3d ef 3d af bd 1f 7d f7 3c
       0.18274191 0.087296225 -0.08556735 0.03021103
0003a0 e9 80 3a 3d 27 92 21 be e7 ba 0e bf 81 16 08 be
       0.045533095 -0.15778409 -0.5575394 -0.13289835
0003b0 b2 ab a1 3e 5b 5e ea be bc 5b 56 3d 51 51 d9 bc
       0.31576306 -0.45775113 0.05233358 -0.026528032
0003c0 b8 bd a1 be e9 14 10 3e e9 b0 46 be 88 85 2b be
       -0.31590056 0.14070477 -0.19403423 -0.16750157
0003d0 5d 40 03 3f d5 20 1d be 95 79 b4 be e0 5a bb 3e
       0.51270086 -0.15344556 -0.3524901 0.3659277
0003e0 e8 3e 53 3d e8 f0 7f 3d 69 34 84 be 13 de 4c 3d
       0.051573664 0.062485605 -0.25821236 0.050016474
0003f0 05 7e 99 3d 4f c5 a1 be 29 49 01 3e a6 7f 8e 3d
       0.074947394 -0.31595847 0.12625565 0.06957941

conv_block_2.2.bias f4 [10]
000000 ae 54 f7 3c f8 ba 5c be 92 22 67 3e 42 9e d9 3d
       0.030191746 -0.21555698 0.22571781 0.106258884
000010 0c 19 20 bd 0f c3 aa 3e 38 0d 0b 3b 78 e9 6e 3b
       -0.039086387 0.33351943 0.0021217596 0.0036455076
000020 05 c8 b4 bd 5e 29 ef bd
       -0.08827213 -0.11677812

classifier.1.weight f4 [10, 490]
000000 b4 37 9b 3b 9f 7e 3a be 1a 42 17 3e 09 68 0f be
       0.004736865 -0.18212365 0.1477131 -0.1400453
000010 c7 de 22 3e f7 e1 95 3d 3e 4d 81 3d e0 a6 b4 3d
       0.15905295 0.0731849 0.06313561 0.088208914
000020 06 36 84 3e 7c 3e 0c 3c 41 66 3b be a8 dc a9 3d
       0.25822467 0.008559819 -0.18300726 0.0829404
000030 17 1b 8e 3d ee 60 7b bd bd 13 94 3d 53 a9 69 3c
       0.06938761 -0.061371736 0.07230327 0.014261561
000040 32 84 2d 3e 0b 1a 99 bd 08 de ce 3d 1d 9a 88 bc
       0.1694496 -0.074756704 0.10100943 -0.01667505
000050 3d 8b a9 bd 9f b6 48 3c 94 12 a7 3d 7d ca db 3d
       -0.08278511 0.0122505715 0.0815784 0.10731981
000060 8b ee ec 3d 67 68 82 3e 2a 7c f9 3d 21 8a 48 bd
       0.11568936 0.25470278 0.121818855 -0.048959855
000070 9d 65 6f bd 70 60 63 bc 7b 8c 40 bd c8 2c 44 3c
       -0.058446515 -0.013877973 -0.047008973 0.011973567
000080 c8 2b 32 3e 37 c8 1f be ad 7b 2a bc f1 ee 06 3d
       0.17399514 -0.1560372 -0.010405463 0.032942716
000090 8f c7 a4 bd 14 25 8c bb 39 b0 06 be 8f ea 41 be
       -0.08045875 -0.004276881 -0.13153161 -0.18937133
0000a0 e5 97 84 3b d1 77 91 bc 10 23 bc 3d c3 cc 10 be
       0.0040464276 -0.017757328 0.09186375 -0.1414061
0000b0 6a 3f 20 be 70 6f 1c 3d 8d 77 c8 bc 9f ec 9f 3e
       -0.1564919 0.038192213 -0.024471069 0.31235215
0000c0 2a 2a 37 bd c6 48 75 3d fc 7a ac 3d 14 f2 00 be
       -0.044717945 0.059883855 0.08421895 -0.12592345
0000d0 93 36 82 bd a2 95 32 bd 12 19 9a 3a ee 5f 21 3d
       -0.063580655 -0.043599732 0.0011756739 0.039398126
0000e0 58 4c 9a 3d 75 0e a1 bc e0 f3 24 bd 84 89 82 3d
       0.07534093 -0.019660214 -0.04027164 0.06373885
0000f0 f4 de 0d be 1d 0d a2 bd 55 16 17 3d 3c fd 89 bd
       -0.13854581 -0.079126574 0.03688653 -0.06737754
000100 bd 80 87 3d 92 9f c3 bc 24 58 d9 3d 24 9b 8e bb
       0.06616352 -0.0238798 0.106125146 -0.0043519903
000110 70 4b c2 3d eb 4b 2d 3e 71 b1 15 bc ce 9b d3 3d
       0.09487045 0.16923492 -0.009136544 0.10332452
000120 44 6a 01 bd ac f5 fd 3c 42 06 9e 3c 0b 3e 02 bd
       -0.031595483 0.031000935 0.019290093 -0.03179745
000130 e3 65 84 3d 2c c4 49 3d 89 97 dc 3d e2 30 84 bd
       0.06464746 0.04925935 0.107710905 -0.06454636
000140 27 af ba bd 08 f9 ff 3c 42 c0 31 bd 06 5f 1a 3d
       -0.09115439 0.031246677 -0.043396242 0.037688278
000150 4d a9 bc bd a8 f3 2f 3d dd 14 98 bd 12 63 04 be
       -0.09211979 0.042956978 -0.07425854 -0.12928417
000160 b4 10 1e bc 41 e8 e4 3c 18 3b 58 bd a1 bc b5 bc
       -0.009647537 0.027942779 -0.05279073 -0.022184672
000170 f0 55 ea bd 72 07 27 3e 3a ac 21 be 41 8b 50 be
       -0.114421725 0.16311434 -0.15788355 -0.20365621
000180 38 0f e7 3d c9 c0 8c bd 9a e6 58 3d 94 7c 09 3d
       0.112821996 -0.06872708 0.052954294 0.033566073
000190 6e 46 e0 3d 09 ae 06 bc 8c e7 47 bd 5a cc 07 3e
       0.109509334 -0.008220204 -0.048804805 0.13261548
0001a0 58 68 f7 3b 85 bb 3b 3e 23 9e a3 3d c8 fd e4 bb
       0.0075502805 0.18333252 0.079891466 -0.006988261
0001b0 b0 bc 62 3d 5f 07 cd bc 18 30 f7 3b d5 f8 a7 3c
       0.055355728 -0.025027929 0.007543575 0.020504395
0001c0 b9 97 e5 3d 2f 9c 11 3e 8b d5 6e 3e 0a ce d3 3a
       0.112105794 0.14219736 0.23323648 0.0016159427
0001d0 e3 ad 7c 3b b6 0c 45 bd 23 27 f3 bd 96 a8 e2 3b
       0.0038555793 -0.048107825 -0.11872699 0.0069170697
0001e0 9c 98 86 bd 23 c5 d7 3d a8 0b 20 be 2d 2b f5 bd
       -0.06572077 0.10535648 -0.15629447 -0.11971126
0001f0 8e 08 01 3e e0 79 de bd 4e 78 55 be 70 11 49 bd
       0.1260092 -0.108630896 -0.20846674 -0.049088895
000200 41 0d 8c 3d 26 ce b4 bd 01 3e 0f be db 32 f6 3d
       0.068384655 -0.08828382 -0.13988496 0.12021419
000210 cd f8 f1 3d 44 4c 4d bd 8e ab 19 3d b3 03 ca 3d
       0.11815033 -0.05012156 0.037517123 0.09863987
000220 aa 0c 7e bd 46 9b ce bd f7 a7 00 bd 23 c2 0a 3d
       -0.062023796 -0.1008821 -0.031410184 0.03387655
000230 1e 8f fe 3b 58 9d da 3d d6 36 cd 3c ad 3f 03 be
       0.0077685257 0.10674542 0.025050562 -0.12817259
000240 c1 5f 94 bd 89 a5 0b be c2 62 16 be 98 dc 68 3e
       -0.07244826 -0.13637365 -0.1468611 0.227404
000250 0c c3 ce 3c 8f 61 f3 bc e8 3b 66 bd de d7 e5 3b
       0.02523949 -0.029709606 -0.056209475 0.0070142588
000260 73 03 1d 3d b4 3e 11 bd 01 9d 97 bc 2c 1f ba bd
       0.038333368 -0.03546019 -0.018507482 -0.09087977
000270 11 23 31 be 78 4e 97 bc 3f e5 17 3d 8a 41 24 be
       -0.17298533 -0.018470034 0.03708386 -0.16040626
000280 2a 36 08 be 80 17 89 bb 80 fc a0 3d 88 0e 3e 3c
       -0.13301912 -0.0041837096 0.078606606 0.011600144
000290 fa a4 12 3d a0 94 94 3b 69 2b 59 bd 5e cf 57 3d
       0.035801865 0.004534319 -0.053019915 0.052687995
0002a0 6c 77 3c 3d 7e 3c 19 3e 83 67 29 bd 39 38 0d bc
       0.046012327 0.14964482 -0.041358482 -0.008619362
0002b0 4b 51 44 3c e6 03 35 3d 02 72 0d 3e b6 95 6b bd
       0.011982272 0.04419317 0.13813022 -0.057515822
0002c0 2e 76 2c 3e 08 07 1d be 57 80 ca bd 47 ce ee bc
       0.16841957 -0.15334713 -0.0988776 -0.029151095
0002d0 bc 5a 50 bd 00 38 4c 3e f7 19 4a be 16 b4 fa 3d
       -0.05086778 0.19943237 -0.19736467 0.1224138
0002e0 80 48 84 bd 4f 63 39 bd be 49 4d bb ec 23 d3 bc
       -0.06459141 -0.045260724 -0.0031324471 -0.025773965
0002f0 d3 1b 12 3e 6f 3b 62 bd a2 10 76 bd 8a 59 ff 3b
       0.14268427 -0.05523246 -0.060074456 0.0077926563
000300 e9 e6 12 3c 1e 90 dd bd 61 56 cf bd fc fd a9 3d
       0.008966186 -0.10818504 -0.10123897 0.08300397
000310 6b 40 84 bc c3 79 2f bb 89 73 eb bc ff 7d 4e bc
       -0.016143998 -0.0026775456 -0.028741615 -0.012603282
000320 7c 08 1d 3d 67 f9 de bc 0c 50 9e bc e5 1a 39 bc
       0.03833817 -0.027218534 -0.019325279 -0.011297916
000330 5d 53 e3 bc 21 86 48 3e 19 98 05 3e b6 9c 40 3d
       -0.027749712 0.19582416 0.13046302 0.04702445
000340 4d e7 ab bd f7 31 0f bd b2 2c a9 3d c1 5a 9b 3d
       -0.083937265 -0.03495976 0.08260478 0.07585669
000350 14 42 f2 3c ec 13 02 3e ab bc 42 3c f2 fd 8d 3e
       0.029572524 0.12702912 0.011885802 0.27732807
000360 c8 05 b6 3d 76 27 22 3e 3d bc bb 3d 2e 28 32 be
       0.088878214 0.15835366 0.09166763 -0.1739814
000370 0c 13 29 bc f5 f7 e1 3c d1 cf 09 3e 81 c5 df 3c
       -0.010319483 0.027584055 0.13458182 0.027315857
000380 65 b3 a6 3d ac 51 96 bd bf 21 d4 bd 0f 2d 1e 3d
       0.081396855 -0.073397964 -0.10357999 0.03861719
000390 ce 37 4e bd fd b5 8a bb 76 e6 16 3c ae 13 fa bb
       -0.05034619 -0.0042331205 0.00921022 -0.0076317405
0003a0 00 d4 f8 bd 1d c3 54 3b 58 e8 13 3c 06 35 3e bc
       -0.12149811 0.003246493 0.009027563 -0.011609321
0003b0 4c df a0 bb 55 22 81 bd f2 f2 a6 bc e3 1d 0c 3d
       -0.0049094316 -0.063053764 -0.020379517 0.03420819
0003c0 5b c2 b9 3c 82 15 a5 3c 2c 38 87 bd eb 84 57 bd
       0.022675684 0.020151857 -0.06602511 -0.052616995
0003d0 59 c0 a9 bc b9 dd 71 3c 0f 2b 08 3e e0 39 b0 3c
       -0.020721601 0.014762335 0.13297676 0.021511972
0003e0 b9 d5 5e bd f3 4b 1c 3d 15 58 91 3e 38 47 ed 3d
       -0.05440304 0.03815837 0.28387514 0.115858495
0003f0 dd e7 a6 3a e1 1a 72 bd 57 f1 d8 3d 5b 99 ac 3d
       0.0012733896 -0.059107665 0.10592907 0.08427688

classifier.1.bias f4 [10]
000000 7a 2b 96 3d b4 8d 3c be 8e 85 ed 3e 32 0e 1c bd
       0.07332511 -0.1841343 0.46390957 -0.038099475
000010 73 6a c6 be 14 51 27 be ad 19 1e 3e ee da 71 ba
       -0.3875309 -0.16339523 0.15439482 -0.00092260435
000020 f6 5c 33 3e 23 a4 04 be
       0.1751593 -0.12953238
